Model: "sequential"
_________________________________________________________________
 Layer (type)                Output Shape              Param #   
=================================================================
 conv2d (Conv2D)             (None, 256, 428, 32)      320       
                                                                 
 max_pooling2d (MaxPooling2D  (None, 128, 428, 32)     0         
 )                                                               
                                                                 
 conv2d_1 (Conv2D)           (None, 64, 428, 64)       18496     
                                                                 
 max_pooling2d_1 (MaxPooling  (None, 32, 428, 64)      0         
 2D)                                                             
                                                                 
 conv2d_2 (Conv2D)           (None, 16, 428, 128)      73856     
                                                                 
 max_pooling2d_2 (MaxPooling  (None, 8, 428, 128)      0         
 2D)                                                             
                                                                 
 conv2d_3 (Conv2D)           (None, 4, 428, 256)       295168    
                                                                 
 max_pooling2d_3 (MaxPooling  (None, 2, 428, 256)      0         
 2D)                                                             
                                                                 
 flatten (Flatten)           (None, 219136)            0         
                                                                 
 reshape (Reshape)           (None, 428, 512)          0         
                                                                 
 lstm (LSTM)                 (None, 428, 128)          328192    
                                                                 
 dense (Dense)               (None, 428, 4)            516       
                                                                 
=================================================================
Total params: 716,548
Trainable params: 716,548
Non-trainable params: 0
_________________________________________________________________
n# frames in chunk:  428
n# frames in chunk:  428
n# frames in chunk:  428
Total: 4.63 seconds
Total: 3.96 seconds
Epoch 1/30
…
